demo_model.pt (torch, 12716 bytes, 6 tensors)

weight f4 [20, 2]
0.15776634 0.38685197 -0.5083395 0.6032385 -0.5289719 -0.4009341 -0.556098 0.17017925
0.5302852 0.60172015 -0.6189287 0.1693874 0.17001879 0.32834727 0.66339 0.48726565
0.065527916 0.43617672 -0.38644123 0.042190015 -0.12778467 0.4395278 -0.62093014 -0.42461717
-0.17879486 0.064231694 0.113919556 -0.57795894 0.4905867 -0.03959191 0.45706588 -0.35181737
0.29315633 0.5090032 0.69531304 0.3101657 -0.41378984 0.28678197 0.16972828 -0.059693158
00000000: 808d 213e 7611 c63e 8a22 02bf d76d 1a3f
00000010: b46a 07bf 3c47 cdbe 705c 0ebf 7843 2e3e
00000020: c5c0 073f 550a 1a3f 1c72 1ebf e473 2d3e
00000030: 6819 2e3e 221d a83e edd3 293f e27a f93e
00000040: 8033 863d 8e52 df3e a0db c5be 70cf 2c3d
00000050: fcd9 02be ca09 e13e 47f5 1ebf 6c67 d9be
00000060: 0016 37be e88b 833d a84e e93d 1ef5 13bf
00000070: 2e2e fb3e 202b 22bd 8a04 ea3e 6821 b4be
00000080: 9618 963e 094e 023f 0900 323f 0ace 9e3e
00000090: 43dc d3be 16d5 923e 40cd 2d3e d080 74bd

bias f4 [20]
0.516316 0.036596537 0.15510088 0.16173196 0.3870259 0.18198925 0.705231 0.088470936
0.6021034 -0.50626266 -0.58642906 0.26792812 -0.48676914 0.23054117 -0.36942336 -0.037543416
-0.4519935 0.14787912 0.20922452 0.23873502
00000000: 492d 043f 40e6 153d c4d2 1e3e 109d 253e
00000010: 4228 c63e 645b 3a3e 058a 343f 4030 b53d
00000020: 7323 1a3f 6e9a 01bf 3720 16bf e02d 893e
00000030: ce39 f9be fc12 6c3e 0f25 bdbe 20c7 19bd
00000040: b16b e7be a06d 173e f43e 563e f476 743e

weight f4 [20, 20]
-0.035490498 0.1581524 -0.041679487 -0.108742274 0.08810681 -0.1759549 0.07761648 0.19055077
-0.115768716 0.2209276 -0.037392303 0.18049562 0.03249207 0.1925863 0.018624708 0.04744312
-0.08537775 0.15913787 0.21734568 -0.15954481 -0.035545066 -0.006574407 -0.22125418 0.1456978
0.14427045 -0.22140035 -0.19690403 0.026156396 -0.07676338 -0.19356033 -0.009736136 0.14781901
0.006466195 -0.09431684 0.10175276 -0.0102624 0.16362318 0.16576394 -0.1761691 -0.026405916
0.09566471 0.11033851 0.079264075 0.098465145 0.1556809 -0.22291668 0.04184529 0.04213226
-0.043565318 -0.15343621 -0.02776292 0.098151475 0.025678664 -0.1675125 -0.1403885 0.09153706
0.15928683 -0.09416346 -0.088961005 -0.18084057 -0.065889046 -0.0726662 0.063750505 0.08921185
-0.0593061 0.10330489 -0.09980953 0.14687026 0.18866137 0.10203737 -0.14746022 0.1480459
-0.0500876 0.1746485 0.14304897 0.18127707 0.12830889 -0.052911773 0.2235784 0.1754803
-0.20101887 -0.21143363 -0.17513183 0.10133779 0.15497503 0.1177094 -0.19086733 -0.07914409
0.17314667 -0.18486026 -0.053354964 0.009639531 -0.077002645 -0.16329907 0.036470383 0.22178394
-0.18123153 0.054352075 0.020990461 -0.20701742 -0.0072175115 0.026701838 -0.046196803 0.19012278
-0.204074 -0.109780796 -0.095375 -0.042936265 -0.2124363 -0.14243999 -0.16978297 -0.1804313
0.12271398 0.13566008 0.2160452 0.19548342 -0.08042738 0.012436286 -0.11890747 -0.09321904
0.14730385 -0.03214912 -0.107924335 0.21746513 -0.039941415 0.20742345 0.18124253 0.14363971
-0.030122831 -0.11633036 0.20978898 -0.0071906447 -0.054558933 0.106535554 -0.083540455 -0.045384005
-0.1286647 -0.008884743 0.12045458 -0.05486004 0.1912632 -0.14073384 -0.017281964 -0.09171061
0.14799115 -0.05351761 -0.08980803 -0.05245374 0.16243532 0.10965961 0.0668585 0.010414824
-0.17761596 -0.07817538 0.09683558 -0.016314328 -0.017274901 -0.16706474 0.030664235 0.030920565
-0.2043397 0.0052936673 0.00012266636 0.13535637 -0.06095104 0.03363523 0.16129169 -0.09598918
0.023406908 -0.0837712 0.04709786 -0.1930717 0.026973218 0.04297942 -0.013173297 0.047951072
-0.004381761 -0.12191127 -0.022733793 -0.19397786 0.07323626 0.1645669 0.16473514 0.21844059
0.051205218 0.06630558 -0.12516107 -0.080151945 0.11259961 -0.17313954 -0.17788239 -0.0945255
-0.120948486 -0.16372679 0.13661015 0.04068643 -0.109574206 0.2218591 0.12151793 -0.1360964
0.093316376 -0.13876118 -0.18261151 -0.17668399 0.17761967 0.17424002 -0.09735291 -0.08180827
-0.05039537 0.052038133 -0.010299638 0.102454334 0.0029165894 0.006799683 -0.08993903 0.011210963
-0.020805389 0.059643894 -0.10541238 -0.17959808 0.091321945 0.18929258 0.02417764 -0.11380236
0.03237009 0.10610396 0.0697487 -0.15656115 -0.08192815 0.032393664 -0.20984909 -0.1281249
0.0650498 0.051395953 0.097064346 -0.097782254 0.16738057 0.15056643 -0.089385614 0.15587708
0.20566514 -0.013989955 0.10828921 0.1993379 -0.15790698 -0.0076376647 -0.17375004 0.055373132
0.086669475 -0.21203203 -0.10394462 0.19359276 -0.05417025 0.08714953 -0.1807783 0.15386137
00000000: 7c5e 11bd b4f2 213e 1cb8 2abd 45b4 debd
00000010: 5871 b43d 852d 34be 64f5 9e3d be1f 433e
00000020: 2618 edbd d83a 623e ac28 19bd d8d3 383e
00000030: 6816 053d 5835 453e d892 983c b853 423d
00000040: 88da aebd 0af5 223e de8f 5e3e b75f 23be
00000050: b497 11bd 206e d7bb 7590 62be ce31 153e
00000060: a2bb 133e c6b6 62be 36a1 49be f045 d63c
00000070: 1e36 9dbd ae34 46be 5084 1fbc de5d 173e
00000080: 60e2 d33b 3029 c1bd c063 d03d a023 28bc
00000090: d68c 273e 06be 293e ac65 34be 3851 d8bc
000000a0: dceb c33d 28f9 e13d 3455 a23d 18a8 c93d
000000b0: d06a 1f3e 4544 64be f865 2b3d e092 2c3d
000000c0: 8c71 32bd 621e 1dbe 106f e3bc a403 c93d
000000d0: 105c d23c 6688 2bbe 01c2 0fbe c877 bb3d
000000e0: 161c 233e c6d8 c0bd 3031 b6bd 452e 39be
000000f0: d6f0 86bd 04d2 94bd a08f 823d b4b4 b63d
00000100: f4ea 72bd 8491 d33d f068 ccbd 2865 163e
00000110: 7230 413e f8f8 d03d d0ff 16be 5899 173e
00000120: a828 4dbd 0ed7 323e 6e7b 123e b2a0 393e
00000130: 6863 033e 04ba 58bd bcf1 643e 1cb1 333e
00000140: e4d7 4dbe 0f82 58be c255 33be 308a cf3d
00000150: c6b1 1e3e a011 f13d ba72 43be 4c16 a2bd
00000160: 5c4d 313e 024c 3dbe bc8a 5abd 20ef 1d3c
00000170: 90b3 9dbd df37 27be f861 153d 541b 633e
00000180: c294 39be 48a0 5e3d 30f4 ab3c 60fc 53be
00000190: e080 ecbb d0bd da3c dc38 3dbd 8caf 423e
000001a0: c6f8 50be c1d4 e0bd f853 c3bd f0dd 2fbd
000001b0: e788 59be cadb 11be 96db 2dbe fcc2 38be
000001c0: 7851 fb3d 7aea 0a3e f43a 5d3e ce2c 483e
000001d0: 1cb7 a4bd 90c1 4b3c c285 f3bd a0e9 bebd
000001e0: d2d6 163e ccae 03bd 6f07 ddbd 2eaf 5e3e
000001f0: 9c99 23bd d066 543e a497 393e 4a16 133e
00000200: 28c4 f6bc 9d3e eebd ecd2 563e 809f ebbb
00000210: 3079 5fbd 502f da3d 4217 abbd 94e4 39bd
00000220: aec0 03be 5091 11bc e4b0 f63d ecb4 60bd
00000230: 80da 433e 881c 10be e892 8dbc c6d2 bbbd
00000240: fe8a 173e 4835 5bbd 46ed b7bd bcd9 56bd
00000250: 7255 263e 3895 e03d 1ced 883d f0a2 2a3c
00000260: f5e0 35be 6a1a a0bd bc51 c63d a0a5 85bc
00000270: 1884 8dbc 0513 2bbe 9033 fb3c 204d fd3c
00000280: 6d3e 51be 8076 ad3b 00a0 0039 dc9a 0a3e
00000290: cca7 79bd 18c5 093d a629 253e fa95 c4bd
000002a0: d8bf bf3c 3c90 abbd b0e9 403d 96b4 45be
000002b0: f0f6 dc3c 300b 303d d0d4 57bc 5868 443d
000002c0: e094 8fbb 9eac f9bd 383c babc 22a2 46be
000002d0: e4fc 953d 3a84 283e 54b0 283e e4ae 5f3e
000002e0: 90bc 513d 38cb 873d 392a 00be b426 a4bd
000002f0: a09a e63d 7e4b 31be cd26 36be 9696 c1bd
00000300: d7b3 f7bd ffa7 27be 88e3 0b3e d0a6 263d
00000310: 7168 e0bd 082f 633e 64de f83d db5c 0bbe
00000320: a81c bf3d 6917 0ebe 83fe 3abe a6ec 34be
00000330: eee1 353e fa6b 323e f660 c7bd 188b a7bd
00000340: 606b 4ebd f025 553d d0bf 28bc 94d3 d13d
00000350: 4024 3f3b e0cf de3b f431 b8bd 30ae 373c
00000360: 1070 aabc 284d 743d 72e2 d7bd 8fe8 37be
00000370: 0007 bb3d ead5 413e 3010 c63c 3611 e9bd
00000380: 8096 043d 084d d93d 68d8 8e3d 9151 20be
00000390: f2c9 a7bd 38af 043d aee2 56be 2c33 03be
000003a0: d438 853d 9084 523d acc9 c63d 1042 c8bd
000003b0: d065 2b3e 162e 1a3e ce0f b7bd 3e9e 1f3e
000003c0: e299 523e 2036 65bc bcc6 dd3d 3c1f 4c3e
000003d0: 5eb2 21be 6045 fabb 88eb 31be f0ce 623d
000003e0: c47f b13d ed1e 59be ebe0 d4bd 2e3d 463e
000003f0: a0e1 5dbd 747b b23d f21d 39be d68d 1d3e

bias f4 [20]
-0.020933896 0.07301575 0.12936038 -0.11158881 0.1159856 -0.035047263 -0.043831825 -0.004093796
-0.16353765 -0.04375434 -0.017805338 0.06911147 0.1841155 -0.05068262 0.10090217 0.082705945
0.13752168 -0.20144849 -0.15685695 -0.1614026
00000000: 907d abbc 4889 953d 0c77 043e ad88 e4bd
00000010: dc89 ed3d b88d 0fbd 0089 33bd 4025 86bb
00000020: 6a76 27be c037 33bd 80dc 91bc 508a 8d3d
00000030: c688 3c3e 9498 4fbd cca5 ce3d bc61 a93d
00000040: 7cd2 0c3e 8348 4ebe 1c9f 20be b946 25be

weight f4 [5, 20]
0.17041087 -0.096878484 -0.063066855 -0.20512293 -0.035565704 -0.11296318 0.063253134 0.19487321
-0.0397069 -0.10462472 0.20454419 0.08368951 -0.21961533 0.006664261 -0.09654774 0.20755768
-0.04338412 -0.16262728 -0.0016653389 -0.07427299 0.026744038 0.17934057 -0.11338013 0.12869933
0.21663085 0.13690266 0.09051728 -0.17980596 0.07930517 0.12159857 0.18278402 -0.15565117
-0.045428902 -0.06434432 -0.114381246 -0.17069459 -0.091815576 0.04742843 -0.032648593 0.20282483
0.16103026 -0.079844624 -0.21726541 -0.026030257 -0.102841035 -0.095885545 -0.21659608 -0.035230443
0.20367277 0.1971775 0.10570675 0.20499802 0.17301211 0.077090055 -0.13196152 0.10650569
0.13225186 -0.18100017 0.18288636 0.12885958 0.18524268 -0.17185019 0.0062577426 0.14532685
-0.093967676 0.13740802 -0.2083482 -0.2128331 0.1565888 0.15880221 -0.22008994 -0.08149576
-0.0038603991 -0.022176728 -0.0016726851 -0.08950658 0.1267147 0.0903196 0.0925675 0.010541812
-0.113215476 0.06675449 -0.01172334 0.20470592 -0.08868502 -0.1959776 -0.17591655 -0.057590842
0.025407389 -0.17555639 -0.20928325 -0.14829406 -0.18439949 0.20797476 -0.054965064 0.21068388
0.110096246 0.12083289 0.08787894 0.10554224
00000000: 3080 2e3e 3a68 c6bd 3229 81bd bf0b 52be
00000010: 58ad 11bd 3d59 e7bd dc8a 813d d88c 473e
00000020: b4a3 22bd 7c45 d6bd 0874 513e 6865 ab3d
00000030: d7e2 60be e05f da3b d2ba c5bd 008a 543e
00000040: 8cb3 31bd c487 26be 8047 daba 701c 98bd
00000050: 5016 db3c 0ea5 373e d733 e8bd c2c9 033e
00000060: 7ad4 5d3e 3630 0c3e 2061 b93d 0e1f 38be
00000070: c06a a23d ac08 f93d bc2b 3b3e 0563 1fbe
00000080: a813 3abd f4c6 83bd b740 eabd 90ca 2ebe
00000090: ce09 bcbd 5044 423d 88ba 05bd 50b1 4f3e
000000a0: 1ee5 243e 9485 a3bd d37a 5ebe 683d d5bc
000000b0: 529e d2bd a45f c4bd 5dcb 5dbe cc4d 10bd
000000c0: 988f 503e e6e8 493e c87c d83d 00eb 513e
000000d0: 162a 313e 64e1 9d3d ec20 07be a81f da3d
000000e0: 086d 073e 1c58 39be 9046 3b3e c4f3 033e
000000f0: 42b0 3d3e 7ff9 2fbe c00d cd3b 90d0 143e
00000100: 2072 c0bd b0b4 0c3e 3b59 55be ecf0 59be
00000110: d058 203e 0c9d 223e 425f 61be 40e7 a6bd
00000120: c0fe 7cbb f8ab b5bc 003e dbba 3a4f b7bd
00000130: 80c1 013e 7cf9 b83d 0894 bd3d 90b7 2c3c
00000140: 84dd e7bd 94b6 883d 4013 40bc 6e9e 513e
00000150: 7ea0 b5bd 5aae 48be 7823 34be 60e4 6bbd
00000160: 2823 d03c 0ec5 33be 594e 56be 66da 17be
00000170: 38d3 3cbe 56f7 543e 0c23 61bd 84bd 573e
00000180: 247a e13d 3c77 f73d e0f9 b33d 8826 d83d

bias f4 [5]
0.048891455 0.047949165 0.21703896 0.08799708 -0.2209003
00000000: 6842 483d 5866 443d 763f 5e3e d037 b43d
00000010: b033 62be
